best_model.npy (npy, 716344 bytes, 1 tensors)

array f8 [89527]
000000 f0 4c c8 ac d9 fe d8 3f 92 f8 6e f9 6a 76 b7 bf
       0.390554827435337 -0.09165066327747898
000010 59 2c e8 af e4 c9 c1 bf 82 a8 d6 34 da df c4 bf
       -0.1389737948341885 -0.16308143215184506
000020 0f 87 8c b5 0f 2c ae bf eb 56 a6 cc 6f 05 c6 3f
       -0.05892991152928861 0.17204091541923758
000030 5f 41 82 02 0a 65 c0 3f 8b 14 f6 00 25 d6 b7 3f
       0.1280834686517762 0.09311133645504037
000040 ea b7 8d 97 07 a0 c6 3f be 1e 87 4c 53 42 98 bf
       0.17675871753766553 -0.02369051127041532
000050 00 2e 1b 39 e6 bd 87 3f 62 4b 32 8a 5d 2c d0 bf
       0.011592672937147164 -0.25270784850834194
000060 01 14 80 b2 6f 90 91 3f 8b 63 9f da 2f 3c a1 3f
       0.017152543325227757 0.03366231483204903
000070 57 4c 6f 79 dd 3f 8c bf 3f c5 de f9 ad ff b4 bf
       -0.013793688076395734 -0.0820263609919225
000080 3a c9 e8 a3 b1 96 b5 bf bd 6e 69 fa 7e ea a4 bf
       -0.08433065654461283 -0.04085156256470899
000090 0a d8 81 09 ae 44 a7 bf 3c de 3f af b8 28 d7 bf
       -0.045445860539004526 -0.36186043848235605
0000a0 f4 27 dc 70 48 61 d1 3f c0 c3 ac 7c 48 c3 b5 bf
       0.2715626814029968 -0.08501103442973967
0000b0 dc 8f 0b 9a ef 5f 90 3f 6c 94 de 33 9c 00 5c 3f
       0.01599096658436837 0.001709129850021608
0000c0 71 6f 67 83 30 d9 89 bf 23 4e 08 a9 29 0d c1 bf
       -0.012621287355549989 -0.13321419480836125
0000d0 6a 9e 67 8b b6 04 9b bf 00 00 00 00 00 00 00 00
       -0.026385166414824836 0.0
0000e0 27 4e 3e 97 dc 7e ab bf 44 f4 f2 33 6c 48 93 bf
       -0.05370225282890955 -0.018830958052366023
0000f0 42 be 08 4f 50 0f b6 bf c5 25 61 f4 3f 18 b7 bf
       -0.08617116860909227 -0.09021377292915307
000100 1c 99 9b 5e 5f 5e c6 3f 22 a5 1d 4b eb 62 63 bf
       0.1747550212814496 -0.0023665042471533596
000110 53 e0 c9 7e 39 f1 c0 bf 93 bb aa d2 5d 25 96 3f
       -0.13236159029816238 0.02162691686924807
000120 fb 17 ee fb 63 e6 ac 3f 2e 22 45 d9 3e b5 bb bf
       0.05644524050062213 -0.10823433689541481
000130 07 71 32 06 32 7b ba bf e9 1b ed ec 11 68 cc bf
       -0.10344231272978642 -0.22192596501028497
000140 2f 9e e1 7e ff 05 d8 bf 17 d2 67 b9 c5 7a c4 3f
       -0.37536609068635846 0.15999671509747834
000150 8c 1f 00 b5 ca f9 b3 bf 02 eb 01 60 ca 3c b8 3f
       -0.07803027075726571 0.09467758983548083
000160 c8 d3 f5 b3 de d0 c0 3f 8b 76 bc 8d 1b 97 bc 3f
       0.1313742045128079 0.11168071947437334
000170 00 00 00 00 00 00 00 00 79 98 4f 2c d7 6c a4 bf
       0.0 -0.0398928872671584
000180 04 59 96 17 ef 96 d2 3f 2d 37 ae d3 bf 86 cc 3f
       0.2904622774452863 0.22286222301448202
000190 32 e4 fd 85 f3 86 b2 bf ed e2 58 ad fa 8f bb 3f
       -0.0723716928604439 0.10766569835767444
0001a0 5e 1e a9 cc 25 53 cd 3f 70 0d 3e ac 5a f0 d1 bf
       0.22909996503061597 -0.2802950555853476
0001b0 b7 f7 ab e9 9f 14 c2 3f cb f8 cc d7 fb 8b d6 bf
       0.14125441465142582 -0.35229393076214127
0001c0 f4 6a ce 13 77 76 9d bf 4b 20 ae ea 34 f4 c5 3f
       -0.028772221168405346 0.17151509722703148
0001d0 5e f0 b6 72 e9 2e d1 bf d4 ce f9 f8 7e 18 89 3f
       -0.26848827555273214 0.012253753636492538
0001e0 54 f9 d7 61 04 8f c1 bf 05 24 a3 dd 1a d0 b6 3f
       -0.13717703607103238 0.08911292944971201
0001f0 ba ff 92 33 e4 b4 b4 3f 30 6d c0 71 0c 3e a7 bf
       0.08088518389831637 -0.045395268331242966
000200 24 32 01 ed 83 13 c6 3f 8e 9c 85 03 90 9d b6 3f
       0.1724705607652065 0.08834171377167108
000210 b4 0e a7 f1 ce 53 bd 3f c0 cf 83 45 74 37 da bf
       0.1145600643131342 -0.40963465488971096
000220 a5 2e d6 77 dd 6c b2 bf 94 50 9d 0d 5e 67 86 3f
       -0.07197364974688954 0.010939345159990212
000230 9e 72 f6 cd 02 a1 a6 3f 58 35 08 29 a7 e7 de 3f
       0.04419716610138845 0.4828889752105474
000240 cc 28 d2 ef 64 aa d3 bf fa 96 c1 51 4c 94 d0 bf
       -0.3072750417710608 -0.2590513990784157
000250 20 03 fe 1e aa 55 a4 3f fc 51 5a fa 63 d5 c9 3f
       0.03971606853793319 0.20182466243990393
000260 fe a2 0f e0 48 7f d0 3f 8b 6c 14 45 5a a6 f0 bf
       0.25776883965458797 -1.0406134317807154
000270 87 23 1a 4a 28 2b b0 bf 97 1b ba da ad e4 d3 3f
       -0.06315852936871923 0.31083246574456197
000280 ee 4b f0 1e 7d 2b a2 bf 9f f5 fc bf 63 15 a5 bf
       -0.03548804285687611 -0.041178815065431744
000290 fb 8d 04 1d 41 05 bd 3f 89 ca 0f 55 64 5c f0 3f
       0.11336142500345396 1.0225566218111075
0002a0 35 ec bf 73 5f 05 b7 3f 8b ec 12 ce 09 4a 75 bf
       0.08992573333664285 -0.00519756155079699
0002b0 14 ca 47 b2 31 28 bd 3f b1 b1 4d 94 76 8f d6 3f
       0.11389456369924061 0.35250629885447454
0002c0 00 00 00 00 00 00 00 00 61 39 f5 11 25 c7 c0 3f
       0.0 0.13107741715289037
0002d0 1f 6c ee 0c 25 17 af 3f c4 ec 85 52 e7 b0 cd bf
       0.06072345526555289 -0.2319611695237197
0002e0 e8 e1 84 3c 0d 87 c6 bf 66 ee 91 ea 0c 98 66 3f
       -0.17599645094902816 0.002758050181510363
0002f0 2c a6 d2 e8 cd 05 c5 bf 64 2c 4b 78 b3 2d ce bf
       -0.16423963421157006 -0.2357696854945487
000300 a6 68 99 db d3 f9 cb bf 40 47 00 2c 8a 43 cc bf
       -0.21856163237209109 -0.2208111491059359
000310 ba 2d 61 55 60 82 b1 3f f9 57 ca 42 8e 1d 93 3f
       0.06839563450301159 0.01866743357330589
000320 91 ea 4b e4 2d 4f c1 3f 38 0a 22 2c 72 25 b6 bf
       0.1352288593987692 -0.08650888040032434
000330 8c 05 42 79 30 18 b1 3f a2 f9 34 7e b8 aa b6 3f
       0.06677535019300346 0.08854249078010537
000340 46 b1 4a 4b ff c1 b1 3f 6e c9 2b f3 db 80 ae bf
       0.06936641300371091 -0.059576867517438056
000350 f9 a0 47 7f c4 3a c3 3f 89 70 a7 a4 64 d7 d6 3f
       0.15023094382127747 0.3568965537977041
000360 2a ad e6 b7 a6 c4 ae bf 22 0a e3 53 04 64 b6 bf
       -0.060094079922544744 -0.08746363685626382
000370 00 7c 57 ef ba a6 cf 3f c4 fd 72 04 ec 8a d4 bf
       0.24727570234878726 -0.3209791224907941
000380 79 62 7e ec b6 03 aa 3f a6 3b 27 88 ba 64 bc 3f
       0.05080958973775735 0.11091199707082797
000390 10 a4 0d 6b 5b 9e dd 3f ac c1 b5 07 f6 30 e6 3f
       0.4627903504793389 0.6934766913018868
0003a0 1f af 1e 7b 5a e9 c1 3f 60 34 79 61 eb 0e c3 bf
       0.1399338818713369 -0.14889280566640917
0003b0 ac 90 74 0c 24 a0 bb bf 3d 82 99 66 0e 01 d0 3f
       -0.107912304917195 0.2500644685697216
0003c0 0b 89 5e 84 c1 24 98 bf 97 a2 ff 05 ed d0 c0 3f
       -0.023577712730578997 0.13137591164492754
0003d0 01 44 cc d2 37 93 d0 bf a4 4b fa 56 ba 74 c5 bf
       -0.2589854773114553 -0.16762475249251196
0003e0 a6 25 fe 18 e2 b4 81 3f 25 77 46 a4 7a 6e bd bf
       0.008645788562506262 -0.11496702681185107
0003f0 2a e7 b6 db 7a bf dc 3f 50 f9 f6 e7 1e 26 cd 3f
       0.4491870065354414 0.22772585226443676
000400 48 d3 13 1b 5d 77 9a bf 64 af 6a dc d9 19 b5 bf
       -0.025845961358715003 -0.08242570525424991
000410 3c 70 3f f0 94 0c b5 3f 8c b4 c5 1c f3 85 c1 bf
       0.08222323289322814 -0.13690031914612566
000420 94 4f 32 47 04 20 ba 3f e9 0a 8e f7 66 f2 cb bf
       0.10205103624531225 -0.21833502853049616
000430 d7 ab 0f 71 99 10 c8 3f 68 4e 5b 7a 96 dd c2 bf
       0.18800657291953257 -0.14738732313581981
000440 1d 51 81 f3 94 bc cc bf 9e 3d f3 1a 89 a5 b7 bf
       -0.2245050610532723 -0.09236962230646958
000450 29 6c 41 69 9d 8f bb bf 8e 59 b5 32 6a 39 a5 bf
       -0.10766013927188624 -0.04145366543768879
000460 31 71 4a 5f 39 15 b2 bf fd 6f 03 73 2f 68 c3 3f
       -0.07063635422168059 0.15161698451890962
000470 00 00 00 00 00 00 00 00 b4 4b af 58 a6 60 ce 3f
       0.0 0.23732451753911976
000480 35 86 f9 71 8a 8f c1 bf d8 26 6d 57 d3 99 b3 3f
       -0.13719301762744043 0.07656594166214903
000490 91 74 f5 ae 4e d4 d2 3f 62 46 43 af 1a c1 d7 3f
       0.2942082127172592 0.371161147265502
0004a0 00 00 00 00 00 00 00 00 00 2f 1e 38 20 36 b7 3f
       0.0 0.09066964502397568
0004b0 0b 40 cc 16 c2 65 b6 3f 60 6a f2 8a c5 65 b7 bf
       0.08749020630443753 -0.09139666216143771
0004c0 1a 86 91 f1 27 c0 d9 bf 16 3a df 53 73 d6 ab bf
       -0.40235327330273807 -0.05437050246074564
0004d0 00 00 00 00 00 00 00 00 d4 80 d1 79 0e 7d a2 bf
       0.0 -0.03611035573044466
0004e0 33 a9 c9 99 b9 82 ec bf 0f a1 4b 1b c0 ff c6 3f
       -0.8909576419512518 0.1796798833158921
0004f0 73 bd 3e b1 5b 23 ad 3f 16 df 6d fb 7c dd a2 3f
       0.05691038645397386 0.036846070949591844
000500 eb e6 5c ca 83 31 c4 bf 20 2a 03 78 43 6a e1 3f
       -0.15776107197762398 0.5442216247550427
000510 a2 e3 ab 24 7b ce b4 3f 5f 8c 92 84 51 d6 d0 bf
       0.08127565045641785 -0.2630809588101268
000520 ff 95 fd d3 dd 9d 84 bf 6c b9 41 59 a5 aa a4 bf
       -0.01006673148340109 -0.040364424844358066
000530 3d 0e 20 13 c3 dd c0 bf d8 d4 a7 5c 12 a5 c3 bf
       -0.1317676394829607 -0.15347508930395892
000540 5e 1a 3a fb be bd b5 3f 0d 5e 89 e1 14 eb d5 3f
       0.08492654450865575 0.34247324013765096
000550 58 ad 33 95 72 ab b0 bf 57 06 eb b6 0d c9 bc bf
       -0.06511608259795787 -0.1124428340508755
000560 8e d8 c1 55 4b 81 b3 3f d1 c9 a2 17 5f 01 84 3f
       0.0761916241043272 0.009768240841684513
000570 3d 8e 2d f9 0b 80 d8 3f bf 37 47 d9 7a 12 ca 3f
       0.38281535466942157 0.2036889611176189
000580 ad 73 00 70 bd a5 c9 bf c6 43 47 93 46 b2 de 3f
       -0.2003704831012362 0.4796310842767152
000590 a0 a6 59 08 87 23 cc 3f 5c ab 1d 26 a3 95 b8 3f
       0.21983421237682865 0.09603328400195948
0005a0 4a 0b af ff 04 c2 d2 bf b6 14 8d 14 6f cb d2 3f
       -0.29309201211087965 0.2936666203207311
0005b0 fc 89 06 78 93 4c c2 3f d9 bd 61 2e 99 f4 c4 bf
       0.14296191559431282 -0.1637145496820114
0005c0 aa c8 d1 65 c7 83 ca bf 00 00 00 00 00 00 00 00
       -0.2071465727963802 0.0
0005d0 97 e0 f5 08 1b dc b5 bf fc b6 f6 ea d2 05 c6 bf
       -0.08538979500542819 -0.17205273125494347
0005e0 39 9b ab 0c a9 51 ca 3f 5b 4f 57 a4 0a 94 d6 bf
       0.20561707609814464 -0.3527857403653251
0005f0 71 8e f2 03 b0 a1 da 3f 9b 2b 7c 06 47 8e d8 3f
       0.4161186255025547 0.3836839259462807
000600 4f 6e e2 66 cd 64 c0 3f 75 3b e3 ee 60 9e e1 bf
       0.1280762436261846 -0.5505833307050653
000610 45 a1 8d 4a e1 01 b8 3f e5 71 bc 8c a0 b2 a2 3f
       0.09377868719241629 0.036519066981984406
000620 2c 9a 96 19 ef be d0 3f 00 00 00 00 00 00 00 00
       0.2616536855588574 0.0
000630 7d 1e 8c 00 60 94 c5 3f ad 7c f8 4d dc b9 d3 3f
       0.16859054590917202 0.3082190286094811
000640 5d dc cc 20 71 1d ca 3f 33 c4 1c 6f 9c 5a dc 3f
       0.20402349568914505 0.4430304608422972
000650 dd 59 6e c0 7e 04 dd 3f 17 9c bc f9 c1 4f 75 3f
       0.4533993605813558 0.00520301601117181
000660 c4 0e 84 32 c7 af d4 3f ae c7 2c 8f 75 db bf 3f
       0.323228644687543 0.12444243188363543
000670 16 a6 b1 cf 80 20 d1 3f 98 3c 27 fa dc 87 a7 3f
       0.2676088360081804 0.04595842889431728
000680 00 00 00 00 00 00 00 00 1e 89 b1 af 39 23 d4 3f
       0.0 0.31464998395508015
000690 1a 12 51 ef 09 75 9e 3f 8b 65 5a bb e2 50 c7 bf
       0.029743342620593173 -0.18215593479252976
0006a0 da 49 ad b5 94 d9 b9 bf 46 c4 a1 30 98 8a cb 3f
       -0.10097627101394072 0.2151670682392554
0006b0 74 b6 94 47 f4 c1 d5 bf 93 ed 46 b6 bd 3c d1 3f
       -0.33996302595446726 0.2693323402451934
0006c0 6f b2 ec 4b ae c4 d1 bf 3c 95 ad 01 68 4a cb bf
       -0.27762944616805546 -0.2132081993287701
0006d0 f3 ad 73 a0 43 83 cb 3f 14 b1 37 4d c8 75 e3 3f
       0.21494336447300064 0.6081277378230276
0006e0 24 14 0d c2 67 11 81 bf 04 f2 af 06 1c 1b e0 bf
       -0.008333979234189277 -0.5033092623339717
0006f0 ae 23 c6 91 f0 dd b0 3f 7a e2 4c e8 61 bd a0 bf
       0.06588653143820863 -0.03269487343499562
000700 9e 9c f3 9b df b7 d5 bf ac 28 a1 4d 4f da e2 bf
       -0.33934774617814323 -0.5891491428567597
000710 4e ea d2 41 b8 57 c8 3f 3a 7c 90 67 15 03 be 3f
       0.19017699445778863 0.11723455217769266
000720 4e d1 6a 23 76 22 d7 bf 83 9e 03 7d 99 7c c3 3f
       -0.36147836168972425 0.15223997692304544
000730 ca 12 84 85 da 8d d3 bf ef 79 f5 33 75 a7 be 3f
       -0.3055330566278768 0.11974270361449844
000740 cd 91 86 e7 eb df c0 3f f5 40 44 8d 9d 75 d5 bf
       0.13183354191745736 -0.3353036765629576
000750 64 ae f4 a1 58 5b d4 bf 9b 5a a5 b2 a6 91 b3 bf
       -0.3180753308867905 -0.0764412103793383
000760 a4 f2 1b 95 79 31 b9 bf 6e 4c 00 04 09 66 54 3f
       -0.09841117754326462 0.0012450302165276888
000770 35 d9 dd f6 71 26 d4 3f 06 73 91 1e 03 fe bf 3f
       0.31484650714937185 0.12496966835301401
000780 c2 09 a5 4e 87 e6 02 c0 5e 8c 57 8f a3 91 d4 3f
       -2.3625627655139576 0.3213890933822706
000790 52 9e 4b f9 c9 d5 ea 3f ec a9 ef 8a fc 75 bb bf
       0.8385972851801375 -0.10726908103939764
0007a0 a3 ae 9e 9f 9d 78 de bf 43 45 56 73 e7 31 d5 3f
       -0.4761117991244907 0.331170904763969
0007b0 51 82 28 d2 a9 f6 b3 3f 38 68 b8 1a 50 5d b3 3f
       0.07798253422561997 0.07564259197570855
0007c0 72 94 9b 3a 7b e4 d3 bf dc 0b bc bd 29 31 dc 3f
       -0.31082039569293507 0.4405006745220683
0007d0 92 ab fe 75 af 7a ce 3f 3b 4a 71 8d 5f e3 ca 3f
       0.2381190611025344 0.21006388098119708
0007e0 2a 47 1b 30 22 09 da 3f 9b 20 79 6b b2 79 c6 3f
       0.40680746744065976 0.17558889625275217
0007f0 93 41 3d 8d a2 74 cd 3f ce 8b 08 73 13 4c c3 bf
       0.23012191673707302 -0.1507591544805948
