trained_params_sgd.npy (npy, 582288 bytes, 1 tensors)

array f8 [72770]
000000 cc c7 8d 1f 6f 25 7f 3f 96 31 75 97 3b 3f a7 3f
       0.0076040592910988185 0.04540430282449674
000010 9e 16 48 12 b3 b4 9a 3f 16 fa 5c 43 f6 c6 bb 3f
       0.026079938879795088 0.10850466866120487
000020 f0 b0 96 4f 45 63 bb 3f a2 21 9e b6 a9 e4 bb bf
       0.10698350136835066 -0.10895786961021384
000030 77 49 f9 aa 41 f3 bf 3f 18 d2 cf 79 d4 02 9c bf
       0.1248055498520325 -0.027354545531084268
000040 24 86 c0 9e 94 f4 7b bf 56 8f 35 a2 ff e1 82 bf
       -0.006825047061313625 -0.009220120561344618
000050 47 72 69 c9 98 c3 a4 bf 0f c5 e8 91 7c 63 a5 3f
       -0.040554785334027836 0.04177464753264292
000060 26 44 be fd 96 79 b8 3f a0 2e 1c c1 e3 85 b4 bf
       0.09560531325247776 -0.08016799416162224
000070 dc a2 a2 f6 71 25 b3 3f 73 95 bf 96 8d 5d 65 3f
       0.07479011794442719 0.002608086148017713
000080 db 38 c4 a2 74 a5 99 3f ee 65 5b 82 46 d1 77 bf
       0.025045225557783417 -0.005814814974394162
000090 2c 79 ab ad bd c6 97 3f b4 2c 4a 1b 69 2b c0 3f
       0.023219073986973246 0.12632478554255544
0000a0 e7 3b ef 73 de 91 75 bf 99 0a 5f ed df c8 94 3f
       -0.005266064602394294 0.020297526228896776
0000b0 14 c2 e2 dc 24 21 b3 3f ad af 85 7f c6 b4 a6 3f
       0.07472448723525132 0.044347956720997096
0000c0 66 12 e0 ef b3 c0 d3 3f b8 93 20 5e 7c ec 89 3f
       0.3086366503269232 0.01265809213880141
0000d0 ce 68 13 53 42 0a 98 bf 64 34 c6 a0 6d cc 93 3f
       -0.023476635284944085 0.019334519327049896
0000e0 0d ad 72 69 e9 ca aa 3f f6 b8 7a 47 73 c5 ba bf
       0.05232934391218622 -0.10457535262205284
0000f0 45 a0 07 e2 e1 96 90 bf b2 9c 6c fe 6a d5 71 bf
       -0.016200570507777696 -0.004353921837526519
000100 4e bb 88 27 91 2b b2 3f 01 69 79 d3 87 05 ab 3f
       0.07097727980793175 0.05277656990502245
000110 e6 1f 26 40 20 81 ae bf 6c 93 da 37 c3 80 8b bf
       -0.059578903036765316 -0.013429188863776274
000120 d8 9a 15 0f 6a b5 85 3f 6e 1b b0 56 8a ca 85 bf
       0.010599926553095981 -0.010640221376900984
000130 69 65 35 89 e6 6d 91 bf 6d fb 20 56 d8 38 c1 3f
       -0.01702079975561813 0.13454727368840783
000140 3e 0f c8 d6 df 62 73 3f 08 2f b0 92 39 2a b0 3f
       0.004732965823226297 0.06314430075888933
000150 7b 96 24 b8 81 89 53 bf 45 80 ce 17 90 0f a0 3f
       -0.001192452124607084 0.03136873522385079
000160 65 3b d9 26 35 b0 b7 bf da e1 ee e1 2f 50 b9 bf
       -0.09253246496630892 -0.09887980714746139
000170 19 44 a4 39 97 6b c1 bf fc 43 07 6a 99 9d 90 3f
       -0.13609590830358867 0.01622619352002984
000180 24 cc db 2b 2f ff aa bf 4d fb 3c 75 c9 80 90 3f
       -0.05272815142043211 0.01611628320756191
000190 85 c7 59 e9 45 12 c4 bf 3f 55 74 2c 63 b1 91 bf
       -0.15680765050961668 -0.017278241718561956
0001a0 f0 0f 24 98 c2 df 11 bf 06 92 f9 20 4b 1f 63 bf
       -6.818413934089862e-05 -0.0023342578277143504
0001b0 f2 15 3b 26 99 f7 a1 bf 59 99 78 6f 92 85 89 3f
       -0.03509214965519537 0.012461799647166915
0001c0 27 19 de 30 f7 c3 9e 3f 3a fa 8a 56 dd 49 7e 3f
       0.030044424398078775 0.007394661523618279
0001d0 19 0e b4 a1 c5 53 6a bf ce 08 d9 7e a5 bd 82 bf
       -0.0032137737267719066 -0.009150784429156646
0001e0 ae 0d 7d bd 5a e2 c3 3f f9 fb b1 b8 78 59 b4 3f
       0.15534528972976375 0.07949022778664973
0001f0 c1 14 24 e5 d6 09 bc bf b7 12 b2 34 c0 de a1 3f
       -0.10952513784657737 0.034902578766410945
000200 45 5e 87 13 62 a3 c5 bf 3b c3 1c 1a 22 2e c5 3f
       -0.16904855683854883 0.1654703738691071
000210 6e 00 36 7b dd 3a b9 3f a2 ca 77 cd 59 8b 6d 3f
       0.09855446107940377 0.003606486697884507
000220 dd 68 f6 7a 90 34 af 3f e0 11 99 47 eb 74 62 3f
       0.060947909364772214 0.0022530169779051284
000230 5f 05 9e aa cf e4 b5 bf 2b 71 4f 8a b2 88 69 3f
       -0.08552263179264717 0.003116940223192218
000240 46 4c ff e4 c5 df b2 3f 39 8a be 10 d8 5a 81 3f
       0.07372700539353713 0.00847405243968523
000250 05 66 18 1d d0 20 8c bf 53 a4 b9 6d 20 d4 b6 bf
       -0.013734460723799033 -0.08917429617726329
000260 b1 91 9e 49 89 c8 b2 3f c2 34 91 94 3b f0 c1 3f
       0.07337244078968898 0.14014382128008235
000270 f1 96 1a f8 70 93 c1 3f a8 13 60 f4 75 68 a7 bf
       0.13731205095717017 -0.04571884735199855
000280 a5 1b a6 3b 0c 38 a0 3f be 17 ce b5 a9 7a d9 3f
       0.03167761066565981 0.3981117511215152
000290 b9 b9 5e 5c aa 17 84 3f 72 f0 f1 80 8b 33 a3 bf
       0.009810763305577607 -0.03750263165508806
0002a0 95 d1 bd 8d f5 9b 83 bf f3 b0 e3 48 58 4d ae 3f
       -0.009574812305552164 0.05918384446872151
0002b0 ea 98 f8 2d d3 e5 82 bf 83 55 cd 78 3b 73 73 bf
       -0.009227418747354627 -0.004748565971416044
0002c0 9f 4d a4 ae 05 2f be bf b2 03 d3 20 a6 f3 c9 3f
       -0.11790500177112627 0.20274807551143464
0002d0 32 91 9e 13 e4 74 70 3f ed e3 40 83 29 62 af bf
       0.004017725872391064 -0.06129579283919626
0002e0 60 08 6f 70 6d 7b d4 3f 88 de 72 d3 44 d7 bf 3f
       0.3200334165559351 0.12437849199602102
0002f0 9c d2 c4 7f bf 8f c6 bf ab 61 7d 9d 7f 19 b2 bf
       -0.17626184214318108 -0.07070157618489385
000300 4c 95 e0 84 50 17 a7 bf d7 06 52 ec 7e be 93 bf
       -0.04509975072896086 -0.019281371282437867
000310 9b d0 89 83 db c1 9a 3f c6 34 24 63 30 c6 cf 3f
       0.02613013258310613 0.24823574868097448
000320 99 61 ef 98 b4 e7 88 3f 74 ad c6 8d 14 7b a3 3f
       0.01216069308968386 0.03804840307869997
000330 39 08 58 8c 39 f4 ab 3f 84 dc af 25 8f 7a b0 bf
       0.05459766233617853 -0.0643701045045067
000340 40 21 d2 37 a9 a5 91 bf 84 3d b8 88 13 0a a8 3f
       -0.01723350909426924 0.04695187610570442
000350 f4 95 81 4a f7 74 98 3f 1a 04 e2 cc 07 14 96 bf
       0.023883689806458677 -0.021560785179193777
000360 fd a4 5c 36 c1 5a be bf 1c 1c 6a ae c9 c0 c4 3f
       -0.11857230736918108 0.1621334172852763
000370 f2 ca 86 cd b8 6e 9c 3f 01 b2 11 55 4f 4f af bf
       0.02776612047609723 -0.06115196145478664
000380 7a a7 dd ca ff 22 b2 bf 94 e6 8f 8f df 8c 94 3f
       -0.07084654524592607 0.02006863893254847
000390 3c 28 f5 48 cd 9a 83 3f 66 06 b7 18 53 57 85 bf
       0.00957260493182243 -0.010420464698543696
0003a0 f8 18 e5 15 e8 56 ca 3f 1a 18 76 50 21 83 b1 3f
       0.2057771784695388 0.06840713705432258
0003b0 0a 25 25 e6 5d 84 b6 3f 64 10 78 67 96 c7 b2 3f
       0.08795725697304504 0.0733579638109077
0003c0 cf d9 c9 91 82 b3 a7 bf 73 cf 3e da be 62 7e 3f
       -0.04629142789501694 0.007418389814052395
0003d0 f0 e9 ce 58 9f a3 b0 3f eb f3 f1 3a bd a1 92 3f
       0.06499668043299045 0.018195111010289294
0003e0 40 ea 3a 5f dd a8 b3 3f 29 5f dc 76 8e 8b b0 bf
       0.07679542136148942 -0.06462946321368847
0003f0 cb 0b 29 7c 04 6d 63 bf 1b ab 02 f1 d0 85 be bf
       -0.002371319541710081 -0.11922937282603778
000400 63 b1 38 4f 59 72 b7 bf 31 e9 0e f0 ec c0 a4 bf
       -0.09158857521169277 -0.04053440504454143
000410 7b 5a b4 02 ab f3 75 bf fd c5 86 18 9e c0 c2 bf
       -0.005359333047883492 -0.1465032214887713
000420 d0 12 88 bb c3 f6 8d bf 40 15 1e f6 3b cf a4 3f
       -0.014630822334774335 0.04064357165683896
000430 1d b5 35 91 2b 90 9a bf 79 73 da dc 1f 78 b2 bf
       -0.025940590608503834 -0.07214545385290973
000440 96 61 04 e0 f8 31 a1 bf 3c 57 fd b9 71 f2 9f bf
       -0.033584382387007825 -0.031198288895516443
000450 88 68 66 b1 fa 71 af bf b7 b5 fb dc 6f 36 78 bf
       -0.06141646781471005 -0.005911290136038464
000460 8e 77 85 b8 2a 96 a3 3f ec d2 6d 44 cc 6f a1 3f
       0.03825505735834077 0.03405607543291986
000470 f8 40 89 94 bf 98 61 3f 0b e2 77 68 07 fd a6 3f
       0.002148031406513092 0.0448992075943729
000480 37 a9 6e cd 41 ad cf 3f 32 fe d5 a3 30 97 bc 3f
       0.24747488528130088 0.11168197631740709
000490 f2 99 3f b3 80 11 c3 3f 09 3b 76 f6 c8 6f c9 bf
       0.1489716410862481 -0.19872390779752205
0004a0 0d 96 3f 1c 4a 8f a1 bf eb d0 37 8d 2a 97 ae 3f
       -0.03429633707837008 0.05974705671170163
0004b0 e4 dc 74 1c 06 4a 87 3f 7d 78 60 63 4b d8 b2 3f
       0.011371658080504728 0.07361289192383143
0004c0 7f ac 89 2f a9 1d 71 3f ac ff 40 52 80 f9 be 3f
       0.004178677446002087 0.12099458702232252
0004d0 91 87 8a cd 49 d3 a8 3f 35 9e 22 7f 80 48 79 3f
       0.048487001743764975 0.006172658863000492
0004e0 f6 72 74 39 83 21 81 3f d2 42 d6 4c d7 e9 a7 bf
       0.008364701453098072 -0.04670594037009369
0004f0 9c d7 30 f3 15 02 b8 3f 76 55 fa ab fb 6d 8d 3f
       0.09378182589793344 0.01436993235192106
000500 03 95 ed e4 e0 33 a7 bf 43 2a 78 a5 60 83 68 bf
       -0.04531767649204179 -0.002992333185607239
000510 60 f1 69 fc 89 35 66 3f cb 26 3c 96 0a 84 70 bf
       0.0027110762633226065 -0.004032174448875113
000520 a1 52 ea e2 18 d8 c8 3f 19 36 ee 5e 0e a5 e2 3f
       0.19409476356363078 0.5826484541045743
000530 54 cf f2 22 e4 d8 87 3f aa 31 d6 7b ee 5c b0 3f
       0.011644155804198121 0.06391802333218402
000540 c7 aa 6c c3 16 89 88 bf 4c 88 06 6d fa 58 a7 3f
       -0.011980226363069403 0.0456007249915876
000550 e3 cd 74 b9 5d f0 a4 3f 6b 68 8f 4d 38 2c 50 bf
       0.040896347893433015 -0.000987105353706964
000560 5c 12 c8 7e d6 d1 ba bf 13 43 b8 7e c6 cb 6e 3f
       -0.1047643718266697 0.0037592770438624828
000570 db e3 c1 09 e5 54 ce 3f 63 74 0e a0 dc 8d b0 3f
       0.23696578003344268 0.06466463954571249
000580 b3 de a2 61 b2 1b 87 3f 88 dd 86 e4 2e 2c 73 3f
       0.01128329620801991 0.004680808233778484
000590 b4 82 89 57 76 45 82 bf b9 86 f6 91 60 7d 81 bf
       -0.00892155127184089 -0.008539919332921074
0005a0 9c 94 71 05 cf 84 c1 bf d0 b4 90 9b fa 5e c4 3f
       -0.13686549917034518 0.15914852710685645
0005b0 37 2f 2b 7c 29 62 9c 3f c6 78 1a 8a ab 7c a7 3f
       0.027718208507209154 0.045873032196355676
0005c0 a5 42 23 0f 0b 50 72 bf 6b 96 5c 57 8b d3 b2 3f
       -0.004470866393788829 0.07354040987828518
0005d0 29 94 ea 0b ee 30 83 3f 91 1a 38 e2 4e 2a c2 3f
       0.00937067006936772 0.14191614194733806
0005e0 57 71 99 b5 d0 0f b5 3f 09 4b 78 26 87 bd c1 3f
       0.08227257188395264 0.13859643343365516
0005f0 46 27 13 df cb db c2 3f df 86 62 d5 67 5b b1 3f
       0.14733265297246073 0.0678009887656361
000600 0f 69 74 4d d4 85 92 bf 31 23 87 cb 54 c6 ac bf
       -0.018088643290959768 -0.0562006472060318
000610 c1 a0 90 83 80 03 a4 bf 24 ca 28 de f1 d3 b7 3f
       -0.03908921819703571 0.0930777709370792
000620 dd dc 70 76 6e b3 72 bf 50 58 18 78 40 01 9d bf
       -0.004565650458111051 -0.028325087862036746
000630 71 08 c6 81 55 a9 91 bf c8 a9 80 cc 55 2a 9a 3f
       -0.017247520490407845 0.02555212078747518
000640 03 f6 c5 80 b3 0b b1 bf 55 2c 06 a3 4c 7b a1 bf
       -0.06658479589346915 -0.034143824482349906
000650 a0 6b 36 8b df 94 97 bf 65 af 3d 1f 1d aa 97 3f
       -0.023028843757497364 0.023109869987293936
000660 f8 b8 72 86 91 36 b2 bf 5d ac 93 5d e5 51 6f 3f
       -0.07114514858651322 0.0038232307239148126
000670 70 92 47 93 e7 a8 8a bf b0 08 67 14 f9 47 65 bf
       -0.013017472440830263 -0.0025977959478221332
000680 69 01 52 28 21 bc b2 3f cf 1a fb e4 4f 1c 81 bf
       0.07318312868483691 -0.008354782271806553
000690 f6 62 91 dd f7 39 95 bf ff 9c 9e 3b ce a1 63 3f
       -0.020728943727905645 0.002396490858661004
0006a0 e2 24 12 a0 bd 1e ad bf aa a9 67 50 ea 79 bc 3f
       -0.056875158109571236 0.11123527968417216
0006b0 25 55 e6 cd 02 d8 70 3f ca 22 aa 0e 97 7b b7 3f
       0.004112254099159861 0.09172958477041529
0006c0 0d 0c cb fd 88 c2 b7 3f ed 67 bc e6 76 f4 c6 bf
       0.09281212040063753 -0.17933546320347152
0006d0 41 ea 6f 5a c7 05 b3 3f 61 fb e6 e4 32 7d a4 bf
       0.07430692632616688 -0.04001769108025744
0006e0 c0 15 d2 8b c6 49 ac bf 1e 05 52 63 61 a1 89 bf
       -0.05525036293787933 -0.012514839976804523
0006f0 ec 4e 87 8c 89 b8 8a bf 22 5d 71 4e 95 d9 ce 3f
       -0.013047289467898314 0.24101511316505603
000700 8e 45 07 b2 da 7b 79 bf 8d 10 78 44 f4 24 b4 3f
       -0.006221632269857292 0.07868887588125713
000710 1b d1 98 32 07 8f 8a bf 69 0f 2a a1 a6 b1 4c bf
       -0.01296811698112115 -0.000875669824680331
000720 03 ae 12 22 5d f9 bc bf 21 76 c9 4b 48 db af 3f
       -0.11317998964175761 0.06221986699231886
000730 5a 61 1e 83 f0 4a a0 bf 8a 13 26 1b b3 48 be 3f
       -0.03182174301690806 0.11829680836497239
000740 a3 61 8a 1b bc 2d d5 3f 21 e4 4c 87 e7 31 ab bf
       0.3309164303732592 -0.05311511541953729
000750 56 dd 55 58 25 28 b3 bf d7 0a 00 ae da e7 be bf
       -0.07483132750154672 -0.12072531459856904
000760 52 ee 4f 64 69 e4 d5 bf 72 9a 7d ac af e9 c1 3f
       -0.3420661429988502 0.13994403765100888
000770 19 63 af cb 45 3a b2 3f 5b 6e 15 a0 6a df 95 bf
       0.0712016699102488 -0.02136007883141953
000780 54 76 c0 7b 31 a4 cd bf 8b 01 84 4c f3 7f c2 3f
       -0.23157328169411306 0.14452973590961124
000790 cf 43 66 b7 ca d7 96 3f c8 ba 31 c6 d7 6b be 3f
       0.02230755562192482 0.11883305157401047
0007a0 92 9d 3b 5d 39 bd b0 bf 3e 72 82 dd 0d f9 80 bf
       -0.06538733030503455 -0.008287533113894626
0007b0 d9 9f 1c 01 0d 93 be bf 83 ab c6 98 04 7c a0 bf
       -0.11943131711143397 -0.03219618191663811
0007c0 9e 38 c0 5b c3 04 c7 3f 8d 28 a6 20 57 19 b9 3f
       0.1798328588487878 0.09804291293235874
0007d0 83 b9 ee 54 ba 8c 8b 3f b1 ae fa 35 b7 c1 93 3f
       0.013452010838446387 0.019293654126768704
0007e0 76 13 a2 fc 9d a7 a6 bf f1 d9 16 5b ed 93 89 3f
       -0.04424756726169836 0.012489179937671376
0007f0 3e 71 71 f8 b8 60 bf 3f 65 fa 10 93 0b 6d b5 bf
       0.12256961884981352 -0.08369514790045114
